nbs/my_model_dir/topic_embeddings.safetensors (safetensors, 33880 bytes, 1 tensors)

topic_embeddings f4 [22, 384]
00000000: 255b 3fbd 9a7c 5abd cf1b d23c d20e ab3c
00000010: a136 203d 002d fcba ccb2 c2bb 0a65 05bd
00000020: 9550 b2bb 4832 14bd 7fd4 06bd e7a8 bbbc
00000030: 34db 553c b9e1 d83c ba7a 1cbd cf4f f1bb
00000040: 3d3b 423d 1ff2 313d fa16 5cbd 56ea cebc
00000050: 23e1 4f3a 96dd a73c 80a5 c43a 005c 0c3c
00000060: 08e9 1b3d a2c5 173b 4f69 a53c 7607 7fbc
00000070: 93e3 bfbb 7eed 9ebb 262d 143d 3b1a f6bb
00000080: 8ef1 63bc 614d e93a 7003 00bd 3522 e23c
00000090: 40a3 f4bc de37 ce3c 1513 b83a 3590 afbb
000000a0: 9918 9e3b 1ed6 633b fd83 8d3b 01de cb3c
000000b0: d0f1 373d cbc8 fc3c cc9c 1b3b 7149 37bd
000000c0: 8595 713c 479d 0e3c 4e6e 02bd 95f4 d7bb
000000d0: 78eb cbbc 7b20 253d a770 d0bb c99b 163b
000000e0: 0346 563c 5864 55bc c080 ccbb 86ae 4e3c
000000f0: 18b2 5e3b 9827 7abd 6b68 a239 2993 32bc
00000100: f596 8fbb 63c0 013b 79b8 2a3c 10d3 f33c
00000110: b3ad e33a 4b49 e23b 81db d1bb 0285 893d
00000120: 3ed0 2cbd 4776 d53c f843 263c 96e9 bf3c
00000130: 163a 023d 16fc edbb 49f3 0b3d 6667 26bd
00000140: c329 473a 3de8 2d3c 3552 4b3c ed88 8dba
00000150: cdda b13d 75d6 b9bb 01cb 18bc 9a51 f93c
00000160: 0fa3 2239 9c12 c8bb d6dd f0bc 5ac6 e6bb
00000170: c067 113c 26c2 bebc 0cad 893b 454c 523c
00000180: cfd6 1d3c 6457 4abd f238 2ebb e927 8b3d
00000190: 63f1 e3bc 5a72 ce3c 0758 a73c 3c35 6bbc
000001a0: e7f8 f63c 5eef 68bc ce1c ff3c 25d6 9a3c
000001b0: 26fc 163d d7d3 56bd 190f 943c 6058 883c
000001c0: bf3d 11bc 5292 25bb 217f 6c3c e1b5 23bc
000001d0: ea49 883b 74bd d0ba 69aa 213b 8ce6 333d
000001e0: 2c8a 0bbd 2686 2abb 5b78 afba 2a60 6c3c
000001f0: 9bc9 b23c df20 2abb 113c 57bd 6955 2009
00000200: fd1d 3f3c b8ae c3b8 1db1 fa3c f00f e5bb
00000210: 4210 ca3c 2294 73bc 4169 8ebc 1a22 253c
00000220: cf47 c63b 6fe9 893c a94f dfbc 8477 023c
00000230: b045 0dbd c70d 493d ebd0 013d 3c45 4dba
00000240: 3904 a7bc e479 c33c ef48 80bb b5e0 1ebd
00000250: eeff 8f3c 72a1 12bd 1dcb b4bb d9b6 38bc
00000260: dc3e 97bb 2f66 c2ba c16d f13c a059 a13a
00000270: 0cda 0dbb 2d42 1a3b c041 50bd af48 a33b
00000280: 1e3d 4b3b c6ed 9b3c f4fb a23c 3a83 b2bc
00000290: 0f9a 3fbc 1f1f 0dbc e874 3e3c 0cad b2bb
000002a0: 08e1 3dbc eaef 723c 1400 ab3b 1cb0 f0bc
000002b0: 204b 3dbd 5b45 b4bc c4a5 913c 0c55 f7bb
000002c0: 3b03 8abc 2b93 04bd a7cb a53c 0a9f 55bc
000002d0: cc91 2abc 2137 f9bc e8a9 a4bc f3d9 e13b
000002e0: a082 993c 92be b33c 8ef8 9e3c 8795 db3c
000002f0: 9f23 28bc 77e4 613c 5d59 81bb e83b ff3c
00000300: dd3a 9537 faa9 ba3c a9b5 1d3c b0b1 0d3d
00000310: 1198 e93c 2b67 1bba dc15 b33b d1af d63c
00000320: 6185 35bc bf90 36bd 4ff0 183d fd79 283c
00000330: f301 e23c 487a 1fbd c73c b9bc 6156 983c
00000340: bca2 35bc a70c 98ba 9abd 31bb d339 bebc
00000350: 204e acbc 3198 77bc b47d 8e3c f0bb 2ebd
00000360: 28f3 eebc d602 d3bb 928f 8abd 0ef0 7dbb
00000370: d303 29bc b171 8abb 93b7 8ebb e868 3789
00000380: d290 05bd 5c3e ce3c 7b0a 93bb ed6a dd3c
00000390: 83b7 16bb ea77 e0bc f080 bdbc b94a 3d3c
000003a0: bee2 53bc a5a4 86bc 288c 66bc ac95 d4bc
000003b0: 64f1 9c3c 2df6 87bc 6728 813b f37b 483c
000003c0: cded e6bc e685 7e3b 4bbf c5bb 0922 133c
000003d0: b319 703b 727e 533d 1a2a 28bd dd3c 623c
000003e0: 5052 d9bc 04ef 913c d044 a4bc c4a9 4b3d
000003f0: de42 51bb 431d 4cbc 27ef 25bd 7266 ecbc
-0.04671778 -0.053341486 0.025648026 0.02088109 0.0391146 -0.0019239485 -0.0059417244 -0.03256706
-0.005441735 -0.036180764 -0.032917496 -0.022907687 0.01305275 0.02647482 -0.03820298 -0.0073642503
0.047419775 0.043443795 -0.05373285 -0.025258224 0.00079299713 0.020491403 0.0015002936 0.008566856
0.038064033 0.002315857 0.020191817 -0.015565744 -0.0058559864 -0.0048500886 0.03617587 -0.007510451
-0.013912572 0.001779955 -0.03125328 0.027604202 -0.029863 0.025173124 0.0014043773 -0.005357767
0.0048247096 0.0034765075 0.0043187127 0.024886133 0.044908345 0.030857464 0.0023744581 -0.044747774
0.014745121 0.00870449 -0.031843476 -0.0065904357 -0.024892554 0.04031418 -0.0063610855 0.0022981039
0.0130782155 -0.013024412 -0.006240934 0.012614852 0.0033980664 -0.061072916 0.00030976845 -0.0108993435
-0.004382009 0.001979851 0.010419958 0.029763728 0.0017370492 0.00690571 -0.0064043407 0.06714822
-0.042190783 0.026057376 0.010148041 0.023426812 0.031793676 -0.007262717 0.03416756 -0.040625952
0.00075974705 0.010614452 0.012409736 -0.0010798253 0.08684311 -0.005671317 -0.009325744 0.030434418
0.00015510268 -0.006105734 -0.029402655 -0.0070426883 0.008874834 -0.023285937 0.004201537 0.012835567
0.009633734 -0.04939975 -0.0026584235 0.06794722 -0.027825063 0.025201011 0.020427717 -0.014355954
0.030147983 -0.014217226 0.031141665 0.01890094 0.03686156 -0.05244812 0.018073605 0.016643703
-0.008864819 -0.0025264216 0.014434607 -0.009992094 0.004159202 -0.0015925602 0.0024668223 0.04392104
-0.034067318 -0.00260199 -0.0013387309 0.014427224 0.021824649 -0.0025959534 -0.05254752 1.929946e-33
0.011664865 -9.3308685e-05 0.030602032 -0.0069904253 0.024665955 -0.014866861 -0.017384173 0.010078931
0.0060510407 0.016834943 -0.027259665 0.007963065 -0.034490287 0.049085405 0.03169338 -0.0007830446
-0.020387756 0.023861833 -0.0039149444 -0.038788516 0.017578091 -0.035798497 -0.005517377 -0.011274063
-0.0046156477 -0.0014831478 0.02947128 0.0012310036 -0.0021644859 0.002353798 -0.050843954 0.00498303
0.003101177 0.019034278 0.019895531 -0.02179109 -0.011694445 -0.008613377 0.011624552 -0.0054527577
-0.011589296 0.014827708 0.005218515 -0.02938085 -0.046214223 -0.022005728 0.017779239 -0.00754798
-0.016847244 -0.032366913 0.02023871 -0.013038406 -0.010410737 -0.030421795 -0.020100549 0.0068924366
0.018739045 0.021941457 0.01940563 0.026804699 -0.010262399 0.01378738 -0.0039474205 0.031156495
1.7789594e-05 0.02278613 0.009625831 0.034593284 0.028514894 -0.0005928154 0.0054652523 0.026206883
-0.011079163 -0.044571634 0.03733855 0.0102829905 0.02758882 -0.038934976 -0.022611989 0.018595876
-0.011086162 -0.001160045 -0.0027121068 -0.023220932 -0.021033347 -0.015111969 0.017393924 -0.0426597
-0.02916868 -0.006439547 -0.06765665 -0.003874782 -0.010315853 -0.004224979 -0.00435538 -2.207715e-33
-0.032608815 0.02517622 -0.0044873334 0.027028525 -0.0022997565 -0.02740093 -0.023132771 0.01155346
-0.0129324775 -0.01643593 -0.014071502 -0.025950275 0.019158073 -0.016596878 0.003941584 0.012236583
-0.028189564 0.0038837134 -0.006034767 0.008980283 0.0036636412 0.05163426 -0.041055776 0.013808456
-0.026528507 0.017814167 -0.020052344 0.049722448 -0.0031930725 -0.012458148 -0.040511277 -0.028857443
